modelo v3.2/model_improved_int8_3_2.tflite (tflite, 11304 bytes, 6 tensors)

tfl.pseudo_qconst3 i1 [4, 4]
000000 5c e5 7f 45 81 50 50 5c 75 c4 81 48 3c d4 81 05
       92 -27 127 69 -127 80 80 92 117 -60 -127 72 60 -44 -127 5

tfl.pseudo_qconst7 i1 [4, 1, 1, 8]
000000 3b 7f 03 42 04 73 d4 71 d1 c5 9c 23 6e 89 7f 3a
       59 127 3 66 4 115 -44 113 -47 -59 -100 35 110 -119 127 58
000010 4e 2d a8 7f e2 c0 91 52 a6 c5 f4 9e 65 e0 81 a3
       78 45 -88 127 -30 -64 -111 82 -90 -59 -12 -98 101 -32 -127 -93

tfl.pseudo_qconst8 i1 [8] scale=0.0031119008 zero_point=127
000000 e6 84 4f 80 27 78 9f 5d
       -0.47612083 -0.7810871 -0.14937124 -0.7935347 -0.27384728 -0.021783305 -0.6970658 -0.10580462

tfl.pseudo_qconst9 i1 [8] scale=0.1171002 zero_point=-128
000000 f6 ad 4e b9 24 7f eb 50
       13.817823 5.269509 24.12264 6.6747117 19.204433 29.860552 12.529721 24.356842

tfl.pseudo_qconst11 i1 [8, 1, 3, 16]
000000 ec 0f b4 96 b4 cb 63 7c fc 2f 1f 81 44 20 82 78
       -20 15 -76 -106 -76 -53 99 124 -4 47 31 -127 68 32 -126 120
000010 68 59 3a f2 f7 f7 ce 54 fe 23 d8 47 88 20 66 d0
       104 89 58 -14 -9 -9 -50 84 -2 35 -40 71 -120 32 102 -48
000020 a6 1d f3 4c b4 83 d6 ff 99 9c 4c 9c 11 6b ad 56
       -90 29 -13 76 -76 -125 -42 -1 -103 -100 76 -100 17 107 -83 86
000030 00 e9 15 50 cb 24 ac de dd 6c 67 3b 79 df 40 36
       0 -23 21 80 -53 36 -84 -34 -35 108 103 59 121 -33 64 54
000040 d0 e8 d4 1f 44 c2 fe 3a 12 42 86 f4 63 31 c4 b7
       -48 -24 -44 31 68 -62 -2 58 18 66 -122 -12 99 49 -60 -73
000050 65 81 d3 20 c2 15 52 d9 60 4e a7 05 3c 5d e4 ce
       101 -127 -45 32 -62 21 82 -39 96 78 -89 5 60 93 -28 -50
000060 21 22 db 67 06 ef bc 97 63 09 60 8b 42 08 1a 8f
       33 34 -37 103 6 -17 -68 -105 99 9 96 -117 66 8 26 -113
000070 ae f6 3d 6c c3 dd 3a 19 81 f4 8a 63 73 de 91 4f
       -82 -10 61 108 -61 -35 58 25 -127 -12 -118 99 115 -34 -111 79
000080 2c 2e bc f8 a6 4d ea bb 89 fb c0 c6 be 13 d1 9a
       44 46 -68 -8 -90 77 -22 -69 -119 -5 -64 -58 -66 19 -47 -102
000090 33 b0 df 1c f9 08 17 20 5c 62 5d 60 47 da cd 24
       51 -80 -33 28 -7 8 23 32 92 98 93 96 71 -38 -51 36
0000a0 f9 c1 fb 1a 8d 9b 70 b7 d6 48 6b aa f0 da af 49
       -7 -63 -5 26 -115 -101 112 -73 -42 72 107 -86 -16 -38 -81 73
0000b0 df 9a f2 6c 6f e5 3b 0c 53 d9 5b c2 23 7f 28 9e
       -33 -102 -14 108 111 -27 59 12 83 -39 91 -62 35 127 40 -98
0000c0 f6 a1 2b 2d 93 71 3c 4c b8 fd 15 87 b2 c7 a9 f3
       -10 -95 43 45 -109 113 60 76 -72 -3 21 -121 -78 -57 -87 -13
0000d0 f7 fb 98 a5 2d 6f 0c c7 65 55 3f 2c 70 d0 8e 3c
       -9 -5 -104 -91 45 111 12 -57 101 85 63 44 112 -48 -114 60
0000e0 56 5f eb 09 34 31 07 ad d8 ab 7b a2 cf 46 81 46
       86 95 -21 9 52 49 7 -83 -40 -85 123 -94 -49 70 -127 70
0000f0 b6 41 c4 83 44 8b 32 eb 59 b9 9f cb c6 44 9c 5d
       -74 65 -60 -125 68 -117 50 -21 89 -71 -97 -53 -58 68 -100 93

tfl.pseudo_qconst13 i1 [16, 1, 3, 13]
000000 a3 6d c4 7f 58 3f 74 c3 8c 39 ed cf d6 62 14 76
       -93 109 -60 127 88 63 116 -61 -116 57 -19 -49 -42 98 20 118
000010 54 07 88 96 6a 6a 00 65 51 52 e3 69 46 a1 31 b8
       84 7 -120 -106 106 106 0 101 81 82 -29 105 70 -95 49 -72
000020 bb b5 53 00 9d 81 13 e1 8c 16 b7 e4 1e 42 11 eb
       -69 -75 83 0 -99 -127 19 -31 -116 22 -73 -28 30 66 17 -21
000030 0d 56 3b 9a e2 b5 f7 69 81 09 95 eb 9b a4 1e 42
       13 86 59 -102 -30 -75 -9 105 -127 9 -107 -21 -101 -92 30 66
000040 31 2e fe ef 46 58 f9 66 5f 74 36 f0 3f 62 4b 17
       49 46 -2 -17 70 88 -7 102 95 116 54 -16 63 98 75 23
000050 52 de 43 9d 47 cf 42 0c c2 32 09 ee 81 79 c7 6a
       82 -34 67 -99 71 -49 66 12 -62 50 9 -18 -127 121 -57 106
000060 ee fd a1 1d c9 08 38 0e a9 93 8c a9 12 ed ab be
       -18 -3 -95 29 -55 8 56 14 -87 -109 -116 -87 18 -19 -85 -66
000070 a8 57 c7 e0 0d 1e 50 1d 33 81 9e 72 e7 ae 0d 03
       -88 87 -57 -32 13 30 80 29 51 -127 -98 114 -25 -82 13 3
000080 ed 5b 08 f1 63 0d 69 aa 6f 9e d8 b0 59 6e 55 ae
       -19 91 8 -15 99 13 105 -86 111 -98 -40 -80 89 110 85 -82
000090 95 d5 19 52 ff d8 2b 44 28 3d c0 84 99 15 5c f7
       -107 -43 25 82 -1 -40 43 68 40 61 -64 -124 -103 21 92 -9
0000a0 f5 21 60 4f 9c 46 2e b4 f7 23 e9 83 8c 48 b7 cf
       -11 33 96 79 -100 70 46 -76 -9 35 -23 -125 -116 72 -73 -49
0000b0 fa 77 1b 74 81 d3 16 72 84 3c 6e 27 f5 97 27 aa
       -6 119 27 116 -127 -45 22 114 -124 60 110 39 -11 -105 39 -86
0000c0 d1 49 a2 05 61 7e 58 bd 67 34 bc 23 ff 6c 97 0e
       -47 73 -94 5 97 126 88 -67 103 52 -68 35 -1 108 -105 14
0000d0 16 58 03 ba a0 b6 2b 07 bb bc 15 fb a1 4a e6 73
       22 88 3 -70 -96 -74 43 7 -69 -68 21 -5 -95 74 -26 115
0000e0 13 af 67 90 4d 0b cb 7f c8 88 23 e7 26 35 6e 7f
       19 -81 103 -112 77 11 -53 127 -56 -120 35 -25 38 53 110 127
0000f0 1d a9 22 14 b4 4b 32 63 bb 66 49 9e b7 41 6b 9f
       29 -87 34 20 -76 75 50 99 -69 102 73 -98 -73 65 107 -97
