modelo v3.2/model_improved_int8_3_2_1.tflite (tflite, 11304 bytes, 6 tensors)

tfl.pseudo_qconst3 i1 [4, 4]
112 108 -49 127 -32 -1 86 -127
50 127 87 -35 51 127 -3 117
00000000: 706c cf7f e0ff 5681 327f 57dd 337f fd75

tfl.pseudo_qconst7 i1 [4, 1, 1, 8]
3 -70 77 -80 -77 -127 98 84
60 -115 -52 31 -127 -5 -66 77
68 -28 -42 48 127 -28 109 107
-119 -6 11 127 100 -50 116 -8
00000000: 03ba 4db0 b381 6254 3c8d cc1f 81fb be4d
00000010: 44e4 d630 7fe4 6d6b 89fa 0b7f 64ce 74f8

tfl.pseudo_qconst8 i1 [8] scale=0.0044400627 zero_point=127
-1.132216 -0.46620658 -0.21312301 -0.20868294 -0.7725709 -0.78145105 -0.8080914 -1.0167743
00000000: 8016 4f50 d1cf c99a

tfl.pseudo_qconst9 i1 [8] scale=0.083965585 zero_point=-128
11.335354 13.8543215 20.487602 21.411224 6.9691434 8.648456 5.7096596 15.953461
00000000: 0725 747f d3e7 c43e

tfl.pseudo_qconst11 i1 [8, 1, 3, 16]
80 -127 -3 -68 123 80 -47 -33
42 -9 26 -8 54 112 -18 -13
-71 -97 -84 27 -82 -48 117 -24
95 -2 92 -1 52 87 -65 20
-33 -66 67 -95 101 -11 -3 35
-97 -111 -50 89 -6 124 36 49
95 119 74 0 -95 59 -75 26
-95 7 2 127 -7 -35 -57 -64
83 91 -59 76 -56 -8 4 -73
-48 113 46 -32 -28 0 77 11
-47 -43 -57 6 54 23 -79 43
-28 119 -16 -50 103 -20 -52 -20
23 -77 21 53 -21 -19 -37 -58
48 -7 -17 54 -15 -12 -93 37
14 49 -3 -111 -52 -45 -68 43
-38 18 -6 -17 28 -77 -72 109
-120 78 111 9 -5 -127 46 -43
99 -22 59 19 38 103 111 -10
109 -83 34 -92 30 11 12 -117
92 -110 -51 119 -53 -109 47 28
-14 65 73 -46 -60 -58 77 -18
-64 95 79 93 55 32 43 84
-74 -24 -68 -60 74 49 -80 -25
-56 -127 21 117 110 55 -123 -63
-5 -23 5 35 46 -49 -42 -60
-113 -4 37 -34 127 110 78 111
-58 -31 31 -116 111 -110 84 46
-112 -97 0 -38 90 25 109 -82
45 -67 -14 116 94 -12 20 25
42 23 -54 -115 -76 72 22 122
-49 75 61 67 66 66 80 -63
100 -19 13 83 101 127 103 65
00000000: 5081 fdbc 7b50 d1df 2af7 1af8 3670 eef3
00000010: b99f ac1b aed0 75e8 5ffe 5cff 3457 bf14
00000020: dfbe 43a1 65f5 fd23 9f91 ce59 fa7c 2431
00000030: 5f77 4a00 a13b b51a a107 027f f9dd c7c0
00000040: 535b c54c c8f8 04b7 d071 2ee0 e400 4d0b
00000050: d1d5 c706 3617 b12b e477 f0ce 67ec ccec
00000060: 17b3 1535 ebed dbc6 30f9 ef36 f1f4 a325
00000070: 0e31 fd91 ccd3 bc2b da12 faef 1cb3 b86d
00000080: 884e 6f09 fb81 2ed5 63ea 3b13 2667 6ff6
00000090: 6dad 22a4 1e0b 0c8b 5c92 cd77 cb93 2f1c
000000a0: f241 49d2 c4c6 4dee c05f 4f5d 3720 2b54
000000b0: b6e8 bcc4 4a31 b0e7 c881 1575 6e37 85c1
000000c0: fbe9 0523 2ecf d6c4 8ffc 25de 7f6e 4e6f
000000d0: c6e1 1f8c 6f92 542e 909f 00da 5a19 6dae
000000e0: 2dbd f274 5ef4 1419 2a17 ca8d b448 167a
000000f0: cf4b 3d43 4242 50c1 64ed 0d53 657f 6741

tfl.pseudo_qconst13 i1 [16, 1, 3, 13]
31 55 107 -19 -106 50 90 15
7 -28 -1 -18 96 -73 65 -127
-103 5 -107 -29 40 -98 53 -94
-76 -29 74 -85 53 -14 -86 -57
54 70 1 111 -34 -109 -101 -54
35 28 -127 -24 -5 -1 69 -54
-81 84 88 -54 -42 70 -116 55
1 -108 48 88 116 -80 -3 120
-57 80 -108 93 3 85 -122 115
92 5 -75 -108 -94 121 -15 -19
-100 9 -70 104 -42 58 -100 101
37 75 -46 24 96 73 96 -37
-17 75 -53 -74 22 6 -34 -90
-51 16 64 -38 -127 24 -84 -74
29 11 -48 76 -30 81 36 100
-112 33 -115 59 -63 73 78 2
-50 32 -117 -46 0 -55 -8 25
71 19 -88 127 22 35 -11 -114
-45 12 -11 -64 110 1 71 4
19 88 87 6 -52 92 -82 49
64 12 -68 101 -116 -39 -24 -43
-118 -37 0 -53 -4 21 55 -38
-73 -62 -127 106 -63 -78 -39 67
-87 -78 70 -39 -4 -72 -95 101
-13 99 46 -40 96 79 -35 -8
19 -50 88 32 -8 126 21 -66
-7 -13 122 -127 19 -26 37 -69
-51 -80 47 100 -26 -13 -90 -115
-17 -93 109 -54 -83 30 0 -100
85 -28 53 -100 -47 12 -32 -93
-87 56 101 -32 101 78 114 97
-90 -18 55 127 -33 -124 100 -25
00000000: 1f37 6bed 9632 5a0f 07e4 ffee 60b7 4181
00000010: 9905 95e3 289e 35a2 b4e3 4aab 35f2 aac7
00000020: 3646 016f de93 9bca 231c 81e8 fbff 45ca
00000030: af54 58ca d646 8c37 0194 3058 74b0 fd78
00000040: c750 945d 0355 8673 5c05 b594 a279 f1ed
00000050: 9c09 ba68 d63a 9c65 254b d218 6049 60db
00000060: ef4b cbb6 1606 dea6 cd10 40da 8118 acb6
00000070: 1d0b d04c e251 2464 9021 8d3b c149 4e02
00000080: ce20 8bd2 00c9 f819 4713 a87f 1623 f58e
00000090: d30c f5c0 6e01 4704 1358 5706 cc5c ae31
000000a0: 400c bc65 8cd9 e8d5 8adb 00cb fc15 37da
000000b0: b7c2 816a c1b2 d943 a9b2 46d9 fcb8 a165
000000c0: f363 2ed8 604f ddf8 13ce 5820 f87e 15be
000000d0: f9f3 7a81 13e6 25bb cdb0 2f64 e6f3 a68d
000000e0: efa3 6dca ad1e 009c 55e4 359c d10c e0a3
000000f0: a938 65e0 654e 7261 a6ee 377f df84 64e7
