modelo v3/model_improved_int8.tflite (tflite, 11304 bytes, 6 tensors)

tfl.pseudo_qconst3 i1 [4, 4]
0	0x81	-127
1	0x24	36
2	0x12	18
3	0x66	102
4	0x7f	127
5	0x62	98
6	0x68	104
7	0x70	112
8	0x7f	127
9	0x2d	45
10	0x39	57
11	0x55	85
12	0x31	49
13	0x36	54
14	0x81	-127
15	0xfa	-6

tfl.pseudo_qconst7 i1 [4, 1, 1, 8]
0	0x79	121
1	0x6f	111
2	0x43	67
3	0x81	-127
4	0x57	87
5	0xff	-1
6	0x5a	90
7	0x49	73
8	0x50	80
9	0xc3	-61
10	0x4f	79
11	0x73	115
12	0x81	-127
13	0x72	114
14	0x4a	74
15	0xb6	-74
16	0x17	23
17	0x41	65
18	0x81	-127
19	0x81	-127
20	0xf2	-14
21	0xc7	-57
22	0x14	20
23	0x91	-111
24	0x4a	74
25	0xc0	-64
26	0xe8	-24
27	0x52	82
28	0x7f	127
29	0xe7	-25
30	0x91	-111
31	0x18	24

tfl.pseudo_qconst8 i1 [8] scale=0.0035964036 zero_point=127
0	0x37	-0.25894105
1	0x75	-0.035964034
2	0x99	-0.8271728
3	0x80	-0.9170829
4	0xdd	-0.5826174
5	0xc7	-0.6617383
6	0xa7	-0.77682316
7	0xa2	-0.7948052

tfl.pseudo_qconst9 i1 [8] scale=0.111311786 zero_point=-128
0	0x2c	19.145628
1	0x7f	28.384506
2	0xd4	9.35019
3	0xee	12.244296
4	0x14	16.474144
5	0xe1	10.797243
6	0xca	8.237072
7	0xee	12.244296

tfl.pseudo_qconst11 i1 [8, 1, 3, 16]
0	0xa2	-94
1	0xae	-82
2	0x01	1
3	0x51	81
4	0x8b	-117
5	0xc9	-55
6	0xbf	-65
7	0x32	50
8	0x0c	12
9	0x0b	11
10	0xd4	-44
11	0x2b	43
12	0x42	66
13	0x14	20
14	0xd5	-43
15	0x1f	31
16	0xef	-17
17	0xfd	-3
18	0xf2	-14
19	0xdc	-36
20	0x58	88
21	0xd7	-41
22	0x63	99
23	0x22	34
24	0x49	73
25	0xc1	-63
26	0x81	-127
27	0x24	36
28	0x81	-127
29	0x99	-103
30	0x96	-106
31	0x13	19
32	0x0f	15
33	0x2a	42
34	0xc6	-58
35	0x11	17
36	0x2b	43
37	0xfc	-4
38	0x5d	93
39	0x1e	30
40	0x8d	-115
41	0x9c	-100
42	0x66	102
43	0x01	1
44	0x28	40
45	0xc8	-56
46	0xfa	-6
47	0x0d	13
48	0xa6	-90
49	0xdb	-37
50	0xdb	-37
51	0x81	-127
52	0xe8	-24
53	0x20	32
54	0xcb	-53
55	0x00	0
56	0x5d	93
57	0x52	82
58	0xe1	-31
59	0x03	3
60	0x65	101
61	0xa7	-89
62	0x3c	60
63	0xe4	-28
64	0xe9	-23
65	0x68	104
66	0x12	18
67	0x9e	-98
68	0xec	-20
69	0x93	-109
70	0x95	-107
71	0xc6	-58
72	0x1d	29
73	0x0d	13
74	0x6e	110
75	0xad	-83
76	0x4b	75
77	0xfa	-6
78	0xa5	-91
79	0x0a	10
80	0xee	-18
81	0x14	20
82	0x4d	77
83	0xef	-17
84	0x20	32
85	0x66	102
86	0xc1	-63
87	0x66	102
88	0xcf	-49
89	0x18	24
90	0xc0	-64
91	0xe2	-30
92	0x98	-104
93	0xff	-1
94	0xb2	-78
95	0x11	17
96	0x52	82
97	0x5b	91
98	0x95	-107
99	0x28	40
100	0x5a	90
101	0x34	52
102	0xb5	-75
103	0x14	20
104	0xc6	-58
105	0x42	66
106	0x71	113
107	0x39	57
108	0xb1	-79
109	0xd9	-39
110	0xa2	-94
111	0x48	72
112	0x46	70
113	0x6f	111
114	0x54	84
115	0xe9	-23
116	0xa0	-96
117	0x97	-105
118	0x9a	-102
119	0x81	-127
120	0x3d	61
121	0x74	116
122	0x30	48
123	0x6c	108
124	0x0b	11
125	0x1d	29
126	0x5e	94
127	0x78	120
128	0xbc	-68
129	0x46	70
130	0x79	121
131	0xc8	-56
132	0x3c	60
133	0x66	102
134	0xd6	-42
135	0xbc	-68
136	0xe3	-29
137	0x4f	79
138	0xfb	-5
139	0x8d	-115
140	0xe6	-26
141	0x00	0
142	0x3a	58
143	0xab	-85
144	0x8e	-114
145	0x42	66
146	0x3d	61
147	0xda	-38
148	0x5e	94
149	0xf8	-8
150	0x2d	45
151	0xb3	-77
152	0x55	85
153	0xca	-54
154	0x50	80
155	0x6f	111
156	0x05	5
157	0xa9	-87
158	0x78	120
159	0x0c	12
160	0xde	-34
161	0x17	23
162	0x05	5
163	0x20	32
164	0x6b	107
165	0x17	23
166	0xe5	-27
167	0xc3	-61
168	0xb8	-72
169	0x6e	110
170	0xd7	-41
171	0xd3	-45
172	0xd2	-46
173	0x47	71
174	0xa3	-93
175	0xe0	-32
176	0xd4	-44
177	0x70	112
178	0xb1	-79
179	0x8e	-114
180	0x4b	75
181	0xaa	-86
182	0x36	54
183	0xe0	-32
184	0x81	-127
185	0x56	86
186	0x26	38
187	0x15	21
188	0xac	-84
189	0xdf	-33
190	0xb5	-75
191	0x8a	-118
192	0x46	70
193	0xbf	-65
194	0xe0	-32
195	0x03	3
196	0xde	-34
197	0x4f	79
198	0x1b	27
199	0x99	-103
200	0xb7	-73
201	0x9c	-100
202	0xcf	-49
203	0x98	-104
204	0x27	39
205	0xcd	-51
206	0x6d	109
207	0xca	-54
208	0x21	33
209	0x75	117
210	0xc5	-59
211	0x41	65
212	0xd8	-40
213	0x8c	-116
214	0x16	22
215	0x0d	13
216	0x31	49
217	0x85	-123
218	0xe0	-32
219	0x30	48
220	0x82	-126
221	0xe3	-29
222	0x81	-127
223	0xdb	-37
224	0x72	114
225	0x24	36
226	0x9a	-102
227	0xec	-20
228	0x01	1
229	0xea	-22
230	0x63	99
231	0x8d	-115
232	0x2f	47
233	0x71	113
234	0xea	-22
235	0x78	120
236	0xd7	-41
237	0xf4	-12
238	0x70	112
239	0x07	7
240	0xe2	-30
241	0xf4	-12
242	0xaa	-86
243	0x6d	109
244	0x78	120
245	0xee	-18
246	0x62	98
247	0x49	73
248	0xc9	-55
249	0xe2	-30
250	0x75	117
251	0x89	-119
252	0xd9	-39
253	0xf6	-10
254	0x00	0
255	0x11	17

tfl.pseudo_qconst13 i1 [16, 1, 3, 13]
0	0x64	100
1	0xed	-19
2	0x28	40
3	0x40	64
4	0x1c	28
5	0x31	49
6	0xc7	-57
7	0xee	-18
8	0xe6	-26
9	0x74	116
10	0x52	82
11	0x4c	76
12	0x4a	74
13	0xee	-18
14	0x12	18
15	0xd7	-41
16	0x49	73
17	0xaf	-81
18	0x90	-112
19	0xd4	-44
20	0xd3	-45
21	0x6e	110
22	0x34	52
23	0xcd	-51
24	0xaf	-81
25	0x81	-127
26	0x43	67
27	0xc0	-64
28	0x69	105
29	0xdd	-35
30	0x63	99
31	0xf9	-7
32	0x0f	15
33	0xfb	-5
34	0x23	35
35	0x0d	13
36	0xea	-22
37	0xbe	-66
38	0xc3	-61
39	0xfd	-3
40	0xcb	-53
41	0xce	-50
42	0x3a	58
43	0x06	6
44	0xbf	-65
45	0xdb	-37
46	0x57	87
47	0xb1	-79
48	0x41	65
49	0x8d	-115
50	0xac	-84
51	0x25	37
52	0x0f	15
53	0x14	20
54	0xd4	-44
55	0x01	1
56	0xa4	-92
57	0xa4	-92
58	0xbc	-68
59	0x18	24
60	0x7f	127
61	0xb3	-77
62	0x0e	14
63	0x9f	-97
64	0xba	-70
65	0xd8	-40
66	0xc5	-59
67	0x2e	46
68	0x29	41
69	0x76	118
70	0x4e	78
71	0xcd	-51
72	0x8d	-115
73	0x1d	29
74	0x3f	63
75	0xa8	-88
76	0x5e	94
77	0x9b	-101
78	0x10	16
79	0x28	40
80	0xa1	-95
81	0x5b	91
82	0x57	87
83	0xf1	-15
84	0x56	86
85	0x86	-122
86	0x3b	59
87	0xfa	-6
88	0x03	3
89	0xf6	-10
90	0x13	19
91	0xc6	-58
92	0x25	37
93	0x2f	47
94	0x7a	122
95	0x16	22
96	0x37	55
97	0x50	80
98	0x81	-127
99	0xaa	-86
100	0xdc	-36
101	0xee	-18
102	0xe6	-26
103	0x41	65
104	0x04	4
105	0x73	115
106	0xe3	-29
107	0xe7	-25
108	0xd9	-39
109	0xfb	-5
110	0x48	72
111	0x8b	-117
112	0x48	72
113	0x9a	-102
114	0x30	48
115	0x11	17
116	0x2b	43
117	0xcf	-49
118	0x2a	42
119	0x7f	127
120	0x0b	11
121	0xfe	-2
122	0x3e	62
123	0x18	24
124	0x2f	47
125	0xf8	-8
126	0x22	34
127	0x7f	127
128	0xfc	-4
129	0x88	-120
130	0xff	-1
131	0x5b	91
132	0x01	1
133	0xb8	-72
134	0x23	35
135	0x8a	-118
136	0xe6	-26
137	0x06	6
138	0x2a	42
139	0xe0	-32
140	0xe1	-31
141	0x66	102
142	0xfe	-2
143	0xe1	-31
144	0x6e	110
145	0xca	-54
146	0x97	-105
147	0x2d	45
148	0x9c	-100
149	0x95	-107
150	0x6b	107
151	0x85	-123
152	0x47	71
153	0xf7	-9
154	0x53	83
155	0xbf	-65
156	0x49	73
157	0x74	116
158	0x64	100
159	0x44	68
160	0x9c	-100
161	0xbb	-69
162	0x6d	109
163	0x29	41
164	0x81	-127
165	0x92	-110
166	0xf1	-15
167	0xe7	-25
168	0xee	-18
169	0xf2	-14
170	0x73	115
171	0x97	-105
172	0xed	-19
173	0x7e	126
174	0x6d	109
175	0x47	71
176	0x6b	107
177	0xa3	-93
178	0xa9	-87
179	0xb3	-77
180	0xda	-38
181	0xf5	-11
182	0x52	82
183	0x7c	124
184	0x7a	122
185	0xcc	-52
186	0xce	-50
187	0xa8	-88
188	0x7d	125
189	0x0e	14
190	0xa2	-94
191	0x44	68
192	0x1f	31
193	0x81	-127
194	0xb4	-76
195	0x0a	10
196	0xba	-70
197	0xc4	-60
198	0xb9	-71
199	0xe5	-27
200	0x18	24
201	0xe1	-31
202	0x61	97
203	0x05	5
204	0x74	116
205	0xed	-19
206	0x25	37
207	0xbe	-66
208	0xf8	-8
209	0xa3	-93
210	0xf4	-12
211	0x8d	-115
212	0xb5	-75
213	0x14	20
214	0xf9	-7
215	0x48	72
216	0x81	-127
217	0xa2	-94
218	0x5b	91
219	0x29	41
220	0x79	121
221	0x3c	60
222	0xac	-84
223	0xe2	-30
224	0x02	2
225	0x75	117
226	0x27	39
227	0x9f	-97
228	0xad	-83
229	0x17	23
230	0x94	-108
231	0xbf	-65
232	0x0c	12
233	0xad	-83
234	0x0a	10
235	0x1e	30
236	0xea	-22
237	0x9c	-100
238	0xe6	-26
239	0x1f	31
240	0x28	40
241	0xfb	-5
242	0xe6	-26
243	0xa8	-88
244	0x18	24
245	0x00	0
246	0x75	117
247	0xca	-54
248	0x16	22
249	0xe2	-30
250	0xff	-1
251	0xad	-83
252	0x46	70
253	0x7f	127
254	0x70	112
255	0x5e	94
