v3.0.0-New/v3.0.0/model_3.0.0.tflite (tflite, 73728 bytes, 9 tensors)

arith.constant f4 [16]
00000000: 1225 923c 7e36 323d 7307 e13b ee69 263b
00000010: 815a 113d 3f34 27bd 0dfb 113d be9a 083d
00000020: 9e04 67bc 1869 163d f734 5a3d 4531 283d
00000030: fb68 79bb 2302 52bc aaba 033c d1d6 9f3c
0.017839942 0.043509 0.006867343 0.002539273 0.035486702 -0.04082131 0.03563981 0.0333507
-0.014100222 0.03672132 0.053273167 0.041062612 -0.0038056958 -0.012817892 0.00804011 0.019511612

arith.constant1 f4 [32]
00000000: b45d 3e3d d3bd 4e3d 8a6f 46bc cd6b 4d3d
00000010: 150b b7bc 19c2 bebc 9edb 95bb 32e0 3c3c
00000020: cf72 463d 56f9 ebbc 3454 343d 2162 36bd
00000030: 1640 d33c 7265 09bc 1bcc 2a3c 2bf0 a9bc
00000040: 2751 193d 3544 b73c 4fef 6e3d 9e0e 193d
00000050: 78bd 5abd 1c89 8bbd beb7 af3d 550d 92bc
00000060: 7c00 c83c dd0f 053c 4b93 363d 750d b6bc
00000070: 4b60 743d 4f17 823d 9f0c b73b c2e8 eb3c
0.04647608 0.050474 -0.012111554 0.050151635 -0.022344152 -0.023285912 -0.0045732995 0.011528062
0.048449334 -0.028805416 0.044025615 -0.044527177 0.025787394 -0.008386003 0.010424639 -0.020744404
0.03743091 0.02237139 0.05833369 0.037367456 -0.053403348 -0.06813261 0.08579968 -0.017828623
0.024414293 0.008121458 0.044574063 -0.022223214 0.059662145 0.06352102 0.0055862213 0.028797511

arith.constant2 f4 [64]
00000000: 6cc0 28bd fa2e c23c c145 13bc cce0 233d
00000010: 6c2f 0abd afa5 46bc f118 4e3c 2173 3fbc
00000020: 3f4e f53a 0d0c 34bd c79d b2ba 43d3 b63b
00000030: f556 ee3a f0bc fc3c fb0a 9e3b 5efb aa3c
00000040: 25eb c3bc cfb9 103c 6587 873c 7e62 8abc
00000050: 532c 123d 09f7 103d 8181 b63c bdff 81bc
00000060: a983 e4bc e852 15bb cf48 0ebd 46b1 bbbc
00000070: 9a97 753c 5a14 8bbc 039a 923c d5fa bebb
00000080: 64e3 22bd 874a 6bbc abbb a53c ed0c de3b
00000090: 1f67 c9bc 48c7 31bc 4558 3f3c ac1d 913c
000000a0: 70e2 c13a 31bd 0fbd 2c30 853b f1c0 ae39
000000b0: a139 bfbc 740b debc ecd3 bb3c 7a15 0ebd
000000c0: 01eb 093d 477a 42bd dfd5 803b ebfd 2bbc
000000d0: 5949 47bc 3c19 50bc e7e1 80bc d626 77bc
000000e0: 082b bb3c 853a e03c 3a11 4dbc 34e1 b63c
000000f0: 2c30 1bbd 74d4 eabc a98f 083c f27f 84bc
-0.041199133 0.02370404 -0.008988799 0.040009305 -0.03373663 -0.012124463 0.012579189 -0.011685164
0.0018715336 -0.043956805 -0.0013627344 0.0055793836 0.0018183874 0.030851811 0.0048230863 0.020871814
-0.023915837 0.008833363 0.016544053 -0.016892668 0.035686802 0.03539184 0.02227855 -0.015869016
-0.027894812 -0.0022785012 -0.034737404 -0.022911679 0.014989758 -0.016977478 0.017895704 -0.0058282414
-0.039767638 -0.01436103 0.020231089 0.006776443 -0.024585305 -0.010850735 0.01167876 0.017714344
0.0014792215 -0.035092536 0.0040645804 0.0003333162 -0.02334291 -0.02710507 0.0229282 -0.03468845
0.033671383 -0.047479894 0.0039317454 -0.0104975505 -0.012163484 -0.012701329 -0.015732719 -0.015084943
0.022847667 0.027371654 -0.012516314 0.022324182 -0.037887737 -0.028665759 0.0083350325 -0.01617429

arith.constant8 f4 [16, 1, 1, 32]
00000000: a929 bdbe 58f8 5e3d 0037 bb3b cc32 82bd
00000010: 94d5 a73d 8e60 9ebe 5faa b2be 4637 93be
00000020: ab0d 873e d860 bcbd 4bdb a23e 6d53 863b
00000030: 774f bf3d 4ed1 9d3d 77cf 093e 8849 1ebe
00000040: 64a6 02be 5261 96be 8c05 88bd 0311 50be
00000050: ec9f 593d 813a 8f3e 7806 fdbc b70a 8ebd
00000060: ea88 62be 387a 17bd cd1c 923e 353d 8abe
00000070: f681 ee3c 4003 77bd 6a83 433e e041 d9bb
00000080: bd40 0dbe 8357 39be b307 7c3e 826d 3bbe
00000090: 6dfb 8cbe cba7 80bd cc27 86be 8a63 973e
000000a0: 8059 063e 3cdb 16be d965 ea3e 37a8 ff3d
000000b0: 59ae 64be 86a1 6e3e ccc4 663e 41c3 acbe
000000c0: 203b 473e 2b95 d6bd 0eda a43d f142 28be
000000d0: dc4a 1a3e 93da 1bbe ecf8 303e a276 2bbe
000000e0: 4308 373e 7521 82be d87c 3e3e 770d 95be
000000f0: ae1d 65be c8a5 a83e 039c af3e f685 bc3d
00000100: 6db8 61be b9bb 723e 41a5 91bd bf31 c7be
00000110: cd94 653d 5ece be3d d909 d7be 1093 a4bd
00000120: f30f 913e aa53 4a3e b5ad 99be b731 c63d
00000130: 77f2 103e 7f44 ac3e af9b 19be e2d1 773c
00000140: a6f9 9a3c 2291 073e e52b ba3e 79db 4ebe
00000150: d946 2f3e a227 26be 45b0 3dbe 6d91 e2bd
00000160: d80c 93be 9ef6 1f3e 4958 62bc 238c 8f3d
00000170: 9384 f9bd 52e6 84be 31af 243e 1802 94be
00000180: 5634 9b3e 8820 2bbc be27 c3be f5a2 9a3d
00000190: eee1 95be 1305 a7be 301a aabd 8ed1 173e
000001a0: 65c6 45be 2b83 66be ee7d 153e a202 dfbd
000001b0: b0c7 56be 54da 5b3e aad5 ef3d 0109 b9bd
000001c0: 2ed4 a03e 8e1d e53e 6227 d1bd a780 5abd
000001d0: ccc1 46be c94d 353e 028f b53e 99d4 92bc
000001e0: 0d03 b73d 312a 823e 1ecf 43bc 10ae f8bd
000001f0: a3ca 4abe 14c1 a83d 562e 27bc 10bc 27be
00000200: 4b26 bbbe fd05 e03d 45b2 5e3d 3c05 a03e
00000210: 3cc2 783e d560 b6be 0f15 f43d 340a 623e
00000220: 82ff 9b3e e8e2 7bbd 81c9 bd3e 3db9 44bc
00000230: 4766 2abd 94b8 79be 20b1 8d3e 95e8 9a3e
00000240: 5155 f3bd ce39 0a3e 644d 323e 7b3b ac3e
00000250: 3c28 aa3d ad44 c23d 02d4 763e 9a4c 9dbe
00000260: a9db 743e fc22 2ebd f779 493e a459 4b3d
00000270: d662 923e dc08 813e 7164 b9be 3f59 b5be
00000280: 6fb4 8c3d 2eb3 9abe 66b7 993e 1af2 9f3d
00000290: c7f0 4d3e c5cd 513e 7cc4 873e 72fa 913e
000002a0: 9e98 1c3e 8ef1 4ebc e059 4b3d 948d 313d
000002b0: 0bba c4be 6b60 aabe ae23 35be 416a a0bd
000002c0: 939b 89be 12bb bc3e 89b9 bebd 8399 7c3e
000002d0: a7cf 67be 5107 b53d 4513 16be c509 dc3c
000002e0: 5d37 d5be 56b7 9ebe f44d dd3d 9003 103e
000002f0: cead c6be 8875 e7bd 4dfa a63e 3139 083e
00000300: 3411 8bbe 06bb 96be 98a0 863c f544 65bd
00000310: cf38 d7be 09c0 3b3e 65f5 873e 6de5 58be
00000320: 6e55 b93c 8a13 94be 917b 9e3e e251 443e
00000330: 7460 22bd e6bc 12be dd22 febd ee2b 7c3e
00000340: b6b0 b6be 7d9f bebe 7b02 873c 6999 2cbd
00000350: 3ab6 d2bb 4694 653b b12d f4be 924e a93e
00000360: 5899 f7bc 1d97 943e cdb0 b0be 5198 ca3c
00000370: 5261 e6bd 9acd fabd 6273 a2be 41f9 ef3d
00000380: 7562 69be 7581 883e 365e e53d e290 5c3e
00000390: 0814 383d 3f03 cc3d 44f3 1abe b229 a63e
000003a0: 9382 fbbc 82ee 0dbe 6468 c53e a67b 273e
000003b0: 5650 a33e 0891 67be 5112 37be 2636 8a3e
000003c0: dd69 7ebd 06f9 edbe 4a49 723c 1a92 3e3e
000003d0: ae3f 1dbd 3eb0 bdbe a62c 4ebe 921f 39be
000003e0: ad92 6a3e 5b14 87bc 9e71 70be 1a19 a63e
000003f0: 8f7f 5b3e b42a a33e d696 973e d134 a33e
-0.36945847 0.054436058 0.0057133436 -0.06357345 0.08195034 -0.3093304 -0.34895608 -0.28753108
0.26377615 -0.09198159 0.31807932 0.0040993006 0.093413286 0.07705937 0.13458048 -0.15457737
-0.12758785 -0.29371125 -0.06641683 -0.2031899 0.05313103 0.27974322 -0.030886874 -0.069356374
-0.22122541 -0.03698179 0.28537598 -0.26999822 0.029114705 -0.060305834 0.19093099 -0.0066301674
-0.13794227 -0.1809979 0.24612312 -0.18303493 -0.27535573 -0.06282004 -0.26202238 0.2956813
0.13120079 -0.14732069 0.4578083 0.12483256 -0.22332133 0.23303804 0.2253601 -0.33742717
0.19456148 -0.1047767 0.08049403 -0.16431786 0.15067619 -0.15220098 0.17282456 -0.16744474
0.17874245 -0.2541615 0.18602312 -0.29111835 -0.22374603 0.3293898 0.34298715 0.092052385
-0.22043009 0.23704423 -0.07111598 -0.3890514 0.05605011 0.09316705 -0.419997 -0.080358624
0.2833248 0.19758478 -0.3001534 0.09677451 0.14154993 0.33646008 -0.15000795 0.015125724
0.01891787 0.13238958 0.36361614 -0.2020091 0.1711687 -0.16226056 -0.18524273 -0.11062894
-0.28720737 0.1562142 -0.013814994 0.07009151 -0.1218349 -0.2595697 0.16082455 -0.28907847
0.30313367 -0.010444768 -0.38116258 0.07550613 -0.29273933 -0.3262106 -0.08305776 0.14826033
-0.19313963 -0.22510974 0.1459882 -0.10889174 -0.20974612 0.21470004 0.11710675 -0.090349205
0.3141188 0.4474911 -0.1021259 -0.05334535 -0.19409865 0.17705454 0.3546067 -0.01792364
0.08936129 0.25422814 -0.011951236 -0.12142575 -0.19803862 0.08239952 -0.010203918 -0.16380334
-0.36552653 0.10938642 0.05436923 0.31253994 0.24292845 -0.35620752 0.11918079 0.22074205
0.30468374 -0.06149569 0.37067798 -0.012007055 -0.041601446 -0.24386817 0.27674198 0.3025557
-0.11881507 0.13498613 0.17412335 0.3363913 0.08308455 0.09485755 0.24104312 -0.30722505
0.23911919 -0.042513832 0.19675432 0.049646035 0.2859103 0.25202072 -0.36209443 -0.35419652
0.068703525 -0.30214828 0.30022734 0.07809849 0.2011138 0.20488651 0.26517093 0.28511387
0.15292594 -0.012630833 0.04964626 0.04334791 -0.3842319 -0.33276686 -0.17689392 -0.07832766
-0.26876506 0.36861473 -0.09312732 0.24667935 -0.22637807 0.08839286 -0.14655788 0.026860127
-0.416438 -0.3099925 0.10805884 0.14063859 -0.38804477 -0.11301714 0.3261284 0.13303067
-0.27161562 -0.29439563 0.016433999 -0.055973966 -0.4203553 0.18334974 0.2655441 -0.21181269
0.022623744 -0.28921157 0.3095365 0.19171861 -0.039642766 -0.14329872 -0.124089934 0.24626133
-0.35681695 -0.37231055 0.016480675 -0.04213849 -0.0064304145 0.0035031005 -0.4769111 0.33067757
-0.030224487 0.2902154 -0.34509888 0.024730833 -0.11249031 -0.12246247 -0.31728655 0.11717463
-0.22791465 0.26661268 0.1119961 0.21539643 0.04494098 0.09961557 -0.15131861 0.32453686
-0.030701911 -0.13860515 0.38556206 0.16355762 0.3189723 -0.22613919 -0.17878081 0.26994437
-0.062112678 -0.46479052 0.014787981 0.18610421 -0.038390808 -0.37048525 -0.2013422 -0.1807845
0.22907515 -0.016489198 -0.23480842 0.32441026 0.21435378 0.31868517 0.29607266 0.31876233

arith.constant9 f4 [32, 1, 3, 64]
00000000: 23a4 633c 517e 303e 812e 07bc bf0a f03c
00000010: 726b 913d 90ed bfbd c010 0d3e 2618 5fbb
00000020: 4fff 55be 69ad 10bd 88e1 9fbd d47b 173e
00000030: f90a 1dbc f209 1c3e 9da3 213e 8de0 1d3c
00000040: 49a0 943d d152 413e 0773 0fbe 129f 27be
00000050: 2a93 60be 5ba4 96bd 6b3c 053d 69ea b03d
00000060: 984e 203c fd1d 233e 9303 ba3d f3f7 e93b
00000070: be84 12be 0d45 64bd 5906 e03d 8da3 233d
00000080: c683 fb3b a022 cfbd 1187 2bbc a090 133e
00000090: dec7 163e 9a26 aabd 7d2a cc3d 7d43 3a3d
000000a0: f675 06be 0096 973d 9e90 c93c 0e05 62bd
000000b0: b369 6abe fa90 a2bd d5d3 203e 046b a43d
000000c0: e663 703d e9c1 033d 9ded 813d 3206 863b
000000d0: 9c49 d03d a998 aebc 827d 7a3c 4a7a 21be
000000e0: 5a5a 88bd 88b6 913d 99ad 8b3b b0b9 8dbd
000000f0: 3695 2fbd 54db 793d 5c31 373d 7418 0fbd
00000100: e293 ccbd 9528 863d 61bb babd 6f60 5a3d
00000110: bb47 89bd 5a50 17be ebf8 9c3c 4cd7 1ebd
00000120: 5686 8c3c fa75 133e 200b c23d 3324 233e
00000130: 38c6 88bd 3659 c2bd 462e 26be 3e01 7e3e
00000140: d834 90bb 88bc 3b3e a2cd 7abd f1b0 223d
00000150: 0354 0b3d 2950 6f3d 7a3d 99bd 9b58 983d
00000160: 42b9 a13d 2dda 2bbe f9b2 cdbd a43c e2bc
00000170: d0ea a1bd 4d2b 3c3e 06e2 8abd 93c3 8f3d
00000180: 720b 453a 340f b53d 48d5 2b3e ef01 5f3c
00000190: 51aa ebbd aef8 893c c79f 683c 8643 8cbd
000001a0: 7347 01be 08f9 78be 856c 44bd ed5a 13be
000001b0: e6ff 58be 3172 62bd da7c 82bb c361 763d
000001c0: 6b97 e13d a350 91ba 48dc d03b 9620 9b3d
000001d0: 2a48 153e f4b9 50bd 6442 a6bc 0c7c 0abe
000001e0: 119e 433d f4eb 5c3e 8efc fabd e54a d53d
000001f0: 3102 963d cd4f c33c a34a 5e3e f2ad 26be
00000200: 4531 8ebc b680 943d 137b 513d 1f1d 1ebe
00000210: c5a8 b53d b766 0dbe eebf 82bc 9a47 5fbd
00000220: 142c 39bd 31a4 9a3d 47b3 0c3e f37e a03b
00000230: a9e4 4f3d 6409 4e3d 132e 1bbe f451 693e
00000240: 14e5 eebd cfe5 88bd 4195 b73d 16a6 983d
00000250: d8d8 1fbe 9477 1e3d 23d4 7e3d 0a7c 6ebc
00000260: f726 133d d417 0c3d b1c2 11be a37d a33d
00000270: c61f 91bd b11f 51bd 820b 003e a2f2 df3c
00000280: 05e3 c93c 2c0a 663e 3056 883d ce8f 353e
00000290: 76c4 d93d a461 af3d c7ea 75bd b3b3 d5bd
000002a0: 4b34 0cbe bf75 6cbd 1083 c3bc 2dcf 40bc
000002b0: 67bd 0abe 592f fcbd a567 4a3c 1807 e83b
000002c0: 51b4 063e 7afb e63d f627 05be 8cea 1d3c
000002d0: 1597 11be f2d4 b03d 0dfc 4b3e 780c 9abe
000002e0: 7e5e 01bc d45a c43d 8394 d63d bab8 d53d
000002f0: b1cf 013e c846 6d3d 277f 9bbd 551e d1bc
00000300: 28b7 03bc 348d 05be 25a2 3abe 3cfd 89bd
00000310: 7c13 3cbd ec57 10be 862c 093e 17fb f2bd
00000320: 9b63 293d ec39 ec3d 6c10 0bbc 0dc6 f83d
00000330: 64f1 f8bd 480c 96be d770 8c3d 3a07 b03d
00000340: 4a32 d9bd 41c6 11be c999 873d c053 cb3d
00000350: 9ff3 08be f9aa 1abe c581 2a3d 1ef1 be3d
00000360: 9c3a cb3c 943f c1bc 1764 c4bc 6bd1 c73d
00000370: 8b35 293d 8e44 17be c63e 903b 2513 a8bc
00000380: d768 b43b 0f4b b23b e391 2ebe 459a 3ebe
00000390: 4f74 fabc 877b 803d 4ec4 963d b872 1b3d
000003a0: e458 48bc c436 babd 61b9 28be 8e89 2a3d
000003b0: 88f9 b43d bb05 d83d 4766 a4bd cfb1 f0bd
000003c0: 934b 0a3e 144c b73c 9eda e2bd 09c3 dbbd
000003d0: 23a9 ebbc e220 d43d 2705 bbbd dc69 9c3c
000003e0: 333f 54bd dd0d 24be 332f 213d f5c8 15bd
000003f0: d951 ccbd 769f 1a3e a8bb debc d86a cb3d
0.013894114 0.17235686 -0.0082508335 0.029302 0.07100572 -0.09371483 0.13775921 -0.0034041493
-0.20898174 -0.035321627 -0.078066885 0.1479333 -0.009585136 0.15238169 0.1578507 0.009636057
0.072571345 0.18879248 -0.14008723 -0.16369274 -0.21931139 -0.07355567 0.032528322 0.0863846
0.009784363 0.15929408 0.09082713 0.0071401536 -0.1430845 -0.055729914 0.10938711 0.039950896
0.0076756207 -0.10114026 -0.010469214 0.14410639 0.14724681 -0.08308144 0.099690415 0.045474518
-0.13130936 0.07401657 0.024605092 -0.0551806 -0.22891884 -0.07937808 0.15705808 0.08028224
0.05868902 0.03216735 0.06344149 0.004090094 0.1017029 -0.021313028 0.015288712 -0.15769306
-0.06657858 0.07114893 0.004262638 -0.06920183 -0.042866908 0.061000183 0.044724807 -0.03493543
-0.09989144 0.06550709 -0.09117771 0.053314622 -0.067031346 -0.14776745 0.019161662 -0.03877954
0.0171539 0.14400473 0.09474778 0.15931778 -0.06678432 -0.09489672 -0.1622859 0.24805161
-0.0044008307 0.18333638 -0.061231263 0.039719526 0.034015667 0.058426056 -0.07482429 0.07438775
0.07896663 -0.16782446 -0.10043902 -0.027616806 -0.07906115 0.18375893 -0.06781392 0.07019725
0.0007516659 0.088407904 0.16780579 0.013611301 -0.11507095 0.016842213 0.01419825 -0.068488166
-0.12624912 -0.24313748 -0.047955055 -0.14390154 -0.21191368 -0.055284683 -0.0039821686 0.060151827
0.11015209 -0.0011086654 0.006373916 0.07574575 0.1457831 -0.05095859 -0.02029533 -0.13523883
0.047758166 0.21574384 -0.12255202 0.104146756 0.07324637 0.023841763 0.21708159 -0.16277292
-0.017357478 0.07251112 0.051142763 -0.15440796 0.08870081 -0.13808714 -0.01596066 -0.054511644
-0.04520805 0.07550848 0.13740264 0.004897946 0.050755177 0.050301924 -0.15154295 0.22785169
-0.11664787 -0.066844575 0.08964015 0.074535534 -0.15610063 0.038688257 0.062214028 -0.01455594
0.03592583 0.03420241 -0.14234425 0.07982948 -0.070861384 -0.051055614 0.1250439 0.027337376
0.024644384 0.22464818 0.06657064 0.17730638 0.10633175 0.08563545 -0.060038354 -0.104346655
-0.13691823 -0.05772948 -0.023866206 -0.011768145 -0.13548814 -0.12313718 0.012353812 0.0070809238
0.13154723 0.11278434 -0.13003525 0.00963844 -0.1421779 0.08634366 0.19920368 -0.30087638
-0.007896064 0.095876366 0.10477545 0.104356244 0.12676884 0.05792883 -0.07592612 -0.025527159
-0.008039273 -0.13042146 -0.18225916 -0.06737754 -0.04591702 -0.1409604 0.1339589 -0.11864298
0.041354757 0.11534485 -0.008487802 0.1214715 -0.121554166 -0.29306245 0.0685746 0.08595128
-0.10605295 -0.14235784 0.06621129 0.099280834 -0.13374184 -0.15104283 0.041627664 0.09323333
0.02480822 -0.023589887 -0.023973508 0.0975674 0.04131083 -0.14772245 0.0044020144 -0.020516941
0.005505662 0.0054410766 -0.17047839 -0.18613537 -0.030573038 0.06273561 0.07361661 0.0379512
-0.012228224 -0.09092477 -0.16476966 0.04163509 0.08836657 0.10547968 -0.0802732 -0.11752664
0.13505392 0.022375144 -0.11076854 -0.107305594 -0.028767174 0.103578344 -0.09131842 0.019093446
-0.051818084 -0.16020913 0.039351653 -0.0365686 -0.09976549 0.15099892 -0.02718909 0.09932488

arith.constant10 f4 [64, 1, 3, 20]
00000000: 5361 0abd 54c0 31bd d569 083d 7095 03be
00000010: 34d7 20bd 9c44 c43d 043d 33be 2d9f 353e
00000020: 9d34 1dbd 16dc 1a3e 2566 3fbe 0747 d9bd
00000030: abe7 33bd 35dd 6c3e 9cc9 a9bd aab2 14bd
00000040: 03cc 1d3e 7e1f c13c 1d54 d33d dc68 783d
00000050: ce51 2f3b 0c03 793d e234 88bd 7be8 89be
00000060: 0654 c4bd 9d9f 233e d606 143e e343 673e
00000070: 7536 c6bd 59b8 b0bc 1099 a9bc 072a 6fbc
00000080: b6a4 9cbd 6cae 6dbd 1dd0 e1bc f0f3 643e
00000090: 4945 2a3e 9f99 2f3e 6385 23be 6e89 1e3d
000000a0: 4038 ffbd 81fe eebd 88a6 ba3c b8ae 86bd
000000b0: 9d5d 853d d94f 723d 5bf6 703d 6f69 27bd
000000c0: 59cb f8bc a935 063e 8d3b 8ebd 1f10 07be
000000d0: 3a22 843d 56b0 3b3d d202 433d d4dd d3bc
000000e0: 4ff8 6b3d b268 a53d 2123 c63d 118c 1c3d
000000f0: 9a48 853d 29b9 2c3d b49f 0abe 91aa 59be
00000100: 0947 af3c 3c5e aebd 39ac ecbd 005c e2bd
00000110: 5c05 47bd 11dd 8d3e 08d0 3c3e b2b0 733c
00000120: 6252 623e dcd8 89bc 7212 213e 54e8 1b3e
00000130: 7c5e 013b df46 04be 7701 a33e c67f bb3d
00000140: befa 8e3c d665 983d 94fd 74bd d1a4 c3bd
00000150: c7dc 7bbc bb76 d1bc af41 ac3d d309 00bd
00000160: dd55 b73d 84b8 0cbd 6dfc ea3c 5f31 e8bd
00000170: 7584 0a3e 3a93 303d 78d1 fc3d 1336 683e
00000180: 2842 4d3d a963 fd3d d4bc 283e 40ba ab3c
00000190: 0a81 ac3d d99d b13d 2a39 07bd fae3 4fbe
000001a0: 4154 493e ae76 d6bb 59d4 3f3e 9622 05be
000001b0: 2c2e a5bc 1bc8 9ebd 719b c03d 4da2 87be
000001c0: 7669 653e c7e2 693e 62da b93d 10e3 0b3e
000001d0: 8961 83bd d8b3 f73d dd76 e6bc d182 593b
000001e0: 875a b73d 80a2 8abd e9c3 28bd 73e0 3dbe
000001f0: c8f8 a3bd 289a e23d 5102 a9bd be6d 683e
00000200: 5afd b13d 12ca debc c735 e8bd a5ec 8dbd
00000210: 9635 d5bc f642 fd3d 6d72 793d 386a 5fbd
00000220: 4b85 1abd 1b7c 543d 3bff f3bc eaa3 603d
00000230: 0f9b b93d 7d08 9cbd 08dd 3cbe ce8e e73d
00000240: a0f5 a63d 29f2 1b3e 11f1 f93c 652d 2f3e
00000250: c48e f739 4bac a23d 419b d1bd 3760 133e
00000260: 04f9 cb3c bf9c 3d3d 572b 07be 5d56 81bd
00000270: d8c1 843d 7d6c 413e 1bbe 44bd 88ac eb3d
00000280: 7b7d 1b3e ee3f f13d 60f2 90bd ed6b 983c
00000290: 4d8b e43c 7efb 7e3e 4840 293d b16a 083e
000002a0: 1836 f53d e165 053e 1afd d6bd f428 1f3e
000002b0: 7fc3 f0bb b894 653c adfe 5e3c 0028 953d
000002c0: aa49 9c3d f275 293e fd25 a6bd 26d5 a93d
000002d0: 4514 4dbc 3c8b ccbd 1810 003d ae58 f6bd
000002e0: eea5 32be 3871 8b3d 91dc b43d 40b7 2dbd
000002f0: e9ac 203e d087 9fbd 6de2 3ebe 4383 a4bc
00000300: bbd5 ae3d 3f9b dcba 5b8b 503d 0acf bd3d
00000310: 22d3 06be bbb3 01be 7f59 1bbe f48f 5abd
00000320: 938b cfbd 0c61 fbbd 38d4 80bd 5b38 70bd
00000330: a2a4 babd 74de 0cbd 8903 28be c184 39bd
00000340: 8e18 383e 3859 62be 96b6 03bd 0407 54bd
00000350: 853f d33d 0ddf 1f3d f439 423d f9a4 64be
00000360: d12c b23c 4124 5f3d 0f90 d7bc 4e35 81bd
00000370: d13a adbd 08be ba3d ed03 68be 2a49 00bd
00000380: df7c 40be e223 bebd 4689 9dbd 5dc2 c3bd
00000390: 9840 8a3d b6c8 2cbe 7cdb 853d b742 b8bb
000003a0: ebdd 60b9 6ba1 f53c c6f9 31be 190f 12be
000003b0: a5f7 013d d6b1 7fbb 0734 4cbe 4786 963d
000003c0: 4082 5cbd cbaa c1bd 0b23 2d3d b3f8 5fbe
000003d0: 294e acbd f152 6e3d c393 893d b48d a8bd
000003e0: 0b65 f0bd 73fa 94bd c430 463b 6660 1fbe
000003f0: 5488 7b3d 9345 9abc d1d2 b9bd 0242 373e
-0.03378422 -0.04339631 0.033304054 -0.12849975 -0.039267734 0.09583399 -0.17503744 0.17736502
-0.038380254 0.15123019 -0.18691309 -0.106092505 -0.043922108 0.23131259 -0.08290407 -0.0363032
0.15409856 0.023574587 0.10318778 0.060646877 0.002675164 0.06079392 -0.066507116 -0.2693518
-0.09586339 0.15978856 0.14455733 0.2258449 -0.096783556 -0.021572279 -0.020702869 -0.014597422
-0.076486036 -0.05802767 -0.027565056 0.2235868 0.16627993 0.17148446 -0.15968852 0.038705282
-0.12461901 -0.116696365 0.022784486 -0.06576294 0.06511996 0.05915818 0.058828693 -0.040872034
-0.030370401 0.13106407 -0.06944952 -0.13189743 0.06451841 0.045822464 0.04761011 -0.025862612
0.057609852 0.0807661 0.09674669 0.038219515 0.06507988 0.04216877 -0.13537484 -0.21256472
0.021396177 -0.085140675 -0.11556286 -0.11052704 -0.048589095 0.27707723 0.18438733 0.01487367
0.22101739 -0.01682704 0.15729693 0.15225345 0.0019740155 -0.1291766 0.31837055 0.0915523
0.017453548 0.07441299 -0.059812143 -0.095529206 -0.015372462 -0.02556931 0.08410966 -0.03125937
0.08951924 -0.034355655 0.02868482 -0.11337542 0.13527091 0.043109156 0.123446405 0.22676878
0.05011192 0.12372524 0.16478282 0.020962834 0.0842305 0.08672685 -0.0330135 -0.2030181
0.19661047 -0.0065449094 0.18733348 -0.13001475 -0.020163618 -0.07753011 0.09404648 -0.26491013
0.22403511 0.22840415 0.09074856 0.13660836 -0.06415088 0.12094849 -0.02813285 0.0033189545
0.089528136 -0.06769276 -0.04120246 -0.18542652 -0.08006436 0.11064559 -0.08252395 0.22698113
0.08690901 -0.027195964 -0.11338382 -0.06929902 -0.026026528 0.123662874 0.06090014 -0.054544657
-0.037724774 0.05187617 -0.02978479 0.05484382 0.09062778 -0.076188065 -0.18443692 0.11306535
0.08152318 0.15229096 0.030510457 0.1710716 0.0004721788 0.079430185 -0.102346905 0.14392172
0.024899013 0.046292063 -0.13200127 -0.063153006 0.06482285 0.18889041 -0.04803286 0.11507517
0.15184586 0.11779772 -0.07077479 0.01860615 0.027898455 0.24900624 0.04132107 0.1332195
0.11973208 0.13027145 -0.10497494 0.15542966 -0.0073475237 0.014012508 0.013610524 0.0728302
0.07631238 0.16548899 -0.081127144 0.08292608 -0.01251704 -0.09987494 0.03126535 -0.12028633
-0.1744611 0.06808704 0.08831132 -0.04241109 0.1569096 -0.07789576 -0.18641062 -0.020082122
0.085368596 -0.0016830935 0.05091415 0.09268005 -0.13166478 -0.12666218 -0.15170859 -0.05335994
-0.101340435 -0.122743696 -0.062904775 -0.058647495 -0.091134325 -0.034391835 -0.16407599 -0.04529262
0.17978117 -0.22104347 -0.03215655 -0.051764503 0.1031485 0.039031077 0.04741855 -0.22328557
0.021749886 0.054477934 -0.02631381 -0.06308995 -0.08458484 0.09118277 -0.22657748 -0.031319775
-0.18797635 -0.09284188 -0.076921985 -0.09558556 0.067506015 -0.1687344 0.06536004 -0.0056231874
-0.00021444976 0.029984197 -0.17380437 -0.14263572 0.031730313 -0.003901591 -0.19941722 0.0734983
-0.053835154 -0.09456404 0.042269748 -0.21872215 -0.08413345 0.058184568 0.067176364 -0.08230153
-0.117380224 -0.07274332 0.003024147 -0.15564117 0.06140931 -0.018832004 -0.09073413 0.17896274

arith.constant11 f4 [1, 16]
00000000: f034 6ebe db35 083f e916 f7be 0874 1dbf
00000010: c16c 463e d47e 9a3e 94b9 bebe ca0e fabb
00000020: 56bb d73e a9dd b8be 2871 91be ac82 63be
00000030: fca3 bdbd 9d4f df3e 6802 53be 1c51 21be
-0.23262382 0.53207177 -0.48259667 -0.61505175 0.19377424 0.30174887 -0.3725096 -0.0076311575
0.42135113 -0.36106613 -0.28406644 -0.22217816 -0.09259793 0.43615428 -0.20606387 -0.15753597

arith.constant12 f4 [16, 384]
00000000: 880a 20bc ec67 97bc a00f e63d 08dd f0bd
00000010: d478 c43c 790a d6bd 23aa af3d ccfa 0a3d
00000020: 52af 903c 0d9a b5bd c0b2 a0bd 3aac 7e3d
00000030: 2422 aebd 38ac 093c fa70 2c3d 33e3 b9bd
00000040: e283 24bd 3a72 94bd 92cc 8a3d fe46 c0bc
00000050: 19e3 9b3d 3da5 af3d 8f1f 9e3d 1a2b 4fbd
00000060: 19ce 7f3c 5b75 3c3d 866d adbd cfa3 eabd
00000070: 7649 0c3d 049c 92bd 9267 d8bd ea0b c33d
00000080: b09b 37bd 3905 993d 89a9 acbd c92f 863d
00000090: 4a0b b6bd 328b f2bd 4a64 34bd 7df6 afbd
000000a0: 0b84 17bd 6324 823c 3a0c 353d 911a b73d
000000b0: 728d c2bd 8e54 d7bd 86ac c9bb 1e4c c53d
000000c0: c6d7 94bd e651 6f3d 2b43 edbd fa73 03be
000000d0: c3c4 d93d b8f8 8dbd 1ece c6bd b00c 633d
000000e0: bf9f 2a3d 99eb 82bd 5aa2 673d c87a d6bc
000000f0: a2cf 4cbd 654f a7bd 99f0 d9bd 07e7 cabd
00000100: 47c3 c63d a0d6 c4bd 9199 a23d 0196 4f3c
00000110: 8050 de3a de44 3d3d 7e36 ecbd de57 193d
00000120: 1d28 cbbc 7458 623d f98a 8b3d 9c68 c4bd
00000130: e23b e1bd 214e 883d 249e bebc b196 973d
00000140: 64b5 8f3c dfd2 b43d e7e0 e03d ede6 21bd
00000150: 2a6b 6f3d bf19 23bd b809 283c ecb0 8c3d
00000160: 7ffa d83d 5672 6ebd 9ccc ed3c adb5 01bd
00000170: efce 8bbd 9f18 823d 4073 f23a 9ec2 c03c
00000180: f631 a9bd a868 a4bc afce efbd 8ab1 d5bc
00000190: 85d7 d43d f161 f33d ed90 9dbd 0e19 81bc
000001a0: e737 e7bd f468 cbbc 2487 f9bd 49d1 b73c
000001b0: d793 863d b0fd dabb 1a1b 3cbd 2d6b afbd
000001c0: d348 c73d 47d9 20bd 6947 dcbd 6e80 36bd
000001d0: dcd7 f73c 5350 333d 7567 b43d 3926 9ebb
000001e0: cf62 f7bd 65a5 c73d 1d0d e0bd 69d9 d0bd
000001f0: f027 b6bb 958e d33d 62f9 1fbd ccd6 2f3c
00000200: 3aa9 82bd 8bd8 503d f882 dd3d f406 2c3d
00000210: 83b8 7c3a 09db 9b3d e00f 74bc 24d1 803c
00000220: 5172 bebd 305f 6cbd 3d5e 903d a3af 1d3d
00000230: d420 58bd 936d 903d 2fcf 94bd 9a15 a1bd
00000240: 1076 b13d 5e51 0ebc 4a3a d8bd 6a5b dfbd
00000250: 74db 94bd de8d 1ebd 203d 6dbc d630 f1bd
00000260: d3c6 09bc d989 adbb 6ce3 d03d 8ec4 363d
00000270: 8032 8bbd fc03 953c 54bc a3bd 73e7 f6bd
00000280: 4c1f 58bd 3789 d6bc 01af 42bd 4777 983d
00000290: 2a0b f43c b849 65bd 4e58 393d 1a1b 0b3c
000002a0: 1e0f 85bd 3062 dbbc 80d2 07bc eab5 f0bd
000002b0: d94b bebd d366 d33d 6bc3 a53d cf9d 653d
000002c0: c045 a7bd f175 f5bd 34b4 babd cff4 4fbd
000002d0: 451b 59bd c38f 61bd 981f bcbc ec2a 50bd
000002e0: baec cebc e849 19bd c664 a33b dedc 8cbd
000002f0: 768f 753d 80a1 6a3a 931a bb3d 532b ce3d
00000300: 0485 e5bc caa0 313d fb98 ce3d 8aeb 003d
00000310: 52b8 7a3d e5ec 8c3d d842 22bd 7c6a b8bd
00000320: 2e7c 5f3d 5648 50bd 033a c33d afe6 d13d
00000330: c433 c83c d27b 233d f480 28bd 32c9 3b3d
00000340: 05cc e6bd d6f0 01bd 955a f0bd 9dba 89bd
00000350: faed dabd ae1d 9ebd b08a 4abc 329a aebd
00000360: ff0f dd3d e863 623c 0256 7f3d 35c9 e13d
00000370: 17fd cf3d b2b6 e1bd 7624 363d e83c 8bbc
00000380: 2a29 dbbd f277 013d dc59 dc3c c702 aabd
00000390: b07b 59bc e10c b03d 16d2 433d a4e8 87bd
000003a0: 50f8 e33b fe87 413d eceb 3cbd 083d 3d3c
000003b0: 709b 99bc 6f76 b5bd 16ee 043d 7478 b13c
000003c0: 7e26 563d f0e7 b4bd b2d9 91bd d700 b93d
000003d0: 4e12 6f3d aa56 8bbd aaaf 3a3d 73d1 c9bd
000003e0: 5aae a5bd 7272 01bd d8f3 fbbc 34bd 943c
000003f0: 1c6e d23c 68ac 11bd dc28 50bd bae2 0e3d
-0.009768136 -0.018482171 0.11233449 -0.11760908 0.023983397 -0.10451216 0.08577373 0.033930585
0.017661724 -0.088672735 -0.07846594 0.062175967 -0.085026056 0.008402877 0.04209993 -0.09076538
-0.040164836 -0.072483495 0.067773 -0.023471352 0.07611675 0.085764386 0.07720863 -0.050578214
0.015613102 0.046010356 -0.084681556 -0.11457025 0.034249745 -0.07158664 -0.105666295 0.09523757
-0.04482621 0.07471699 -0.08430774 0.06552083 -0.08888872 -0.11842956 -0.044040956 -0.08591936
-0.03699116 0.015886491 0.044201113 0.08940614 -0.09499635 -0.105141744 -0.0061545996 0.09633659
-0.07267718 0.058427714 -0.11585077 -0.1283721 0.106332324 -0.06932205 -0.097072825 0.05543202
0.041656252 -0.06392593 0.056551315 -0.026181594 -0.0500027 -0.0816944 -0.106415935 -0.09907346
0.09705215 -0.09611249 0.07939447 0.012670041 0.0016961247 0.046208255 -0.11533831 0.037437312
-0.024799401 0.055260137 0.06813616 -0.09590265 -0.1099775 0.06655527 -0.023268767 0.07401789
0.017542548 0.08829283 0.10980397 -0.03952687 0.05845181 -0.039819475 0.010256223 0.06869683
0.10594653 -0.058214508 0.02902823 -0.0316674 -0.06826579 0.06352352 0.0018497482 0.0235303
-0.082614824 -0.020069435 -0.11709344 -0.026085634 0.103926696 0.11883915 -0.07693658 -0.015759017
-0.112899594 -0.024830319 -0.12183979 0.022438662 0.06571167 -0.006683074 -0.045924284 -0.08565364
0.09730687 -0.03926971 -0.10755808 -0.044556074 0.030254297 0.043777775 0.08808795 -0.004826334
-0.12079393 0.097483434 -0.10940001 -0.10197718 -0.00555896 0.1032993 -0.03905619 0.010732364
-0.06379934 0.05098776 0.10815996 0.04199882 0.00096405315 0.07610137 -0.014896363 0.015724726
-0.09299148 -0.057707965 0.070492245 0.03849758 -0.052765682 0.070521496 -0.0726608 -0.07865448
0.08665097 -0.008686392 -0.10557993 -0.10906108 -0.0726842 -0.038709514 -0.014479905 -0.11776893
-0.00840922 -0.0052959737 0.10199627 0.044621043 -0.067967415 0.018190376 -0.07994905 -0.12055864
-0.052764222 -0.026188476 -0.047530178 0.07444625 0.02979048 -0.055978507 0.04525023 0.008490348
-0.06497024 -0.026780218 -0.008289933 -0.11753447 -0.092918105 0.103223465 0.08093914 0.0560587
-0.08167601 -0.11985386 -0.09116402 -0.050770577 -0.053004522 -0.055068742 -0.022964284 -0.050822183
-0.025259364 -0.037423998 0.0049863784 -0.068780646 0.059951268 0.0008950457 0.09135928 0.10066857
-0.028017528 0.04336623 0.100877725 0.031474628 0.061210938 0.068811215 -0.03961453 -0.09004685
0.054561786 -0.050850235 0.09532549 0.102490775 0.024438746 0.039913006 -0.041138604 0.04584617
-0.112693824 -0.03172382 -0.11736027 -0.06725047 -0.10689922 -0.07720505 -0.012362167 -0.08525504
0.10794067 0.013817765 0.062337883 0.11024705 0.10155695 -0.110211745 0.044468366 -0.016996816
-0.10701211 0.03160853 0.026898317 -0.08301311 -0.013274118 0.085962065 0.047807775 -0.066361696
0.0069570914 0.047248833 -0.04612343 0.0115501955 -0.018750876 -0.0886048 0.03245362 0.021663882
0.052282803 -0.08833301 -0.071216 0.09033363 0.058367066 -0.06803639 0.045577683 -0.098544024
-0.080898955 -0.031603284 -0.030755922 0.018156625 0.02568727 -0.03556481 -0.050820217 0.034884192

arith.constant13 f4 [16]
00000000: aec3 c4bb d476 5f3d e42d 61bc bfec 4c3d
00000010: 92d6 623d 2eca b53c ae33 63bc 382e 7ebc
00000020: 1aab 5f3d 65c2 61bc 7bee 12bc 067c 5ebc
00000030: b867 4fbc 404c 403d 33e3 68bc e3da 07bd
-0.006004772 0.054556683 -0.013743851 0.050030466 0.05538041 0.022191133 -0.013867302 -0.015513949
0.054606535 -0.013779257 -0.008967991 -0.013579374 -0.012659006 0.046947718 -0.014214325 -0.03316773
